Blink2Code-main/Blink2Code/models/blink_cnn.pth (torch, 40796 bytes, 6 tensors)

fc1.weight f4 [128, 8]
0	0xbe80f98d	-0.25190392
1	0x3c127793	0.0089396415
2	0x3e33ba25	0.17551477
3	0x3eae89fa	0.34089643
4	0x3ea0a27a	0.3137396
5	0xbe254e8b	-0.16143243
6	0x3ea46385	0.32107177
7	0xbe984f58	-0.29748034
8	0xbde2992b	-0.11064371
9	0x3e757c16	0.23973116
10	0xbe96f600	-0.29484558
11	0x3dbbb892	0.09166063
12	0x3e31f8b2	0.17380026
13	0xbc5feef3	-0.01366781
14	0x3e8540e9	0.26026085
15	0xbe067cbe	-0.13133523
16	0xbc3a07a0	-0.011354357
17	0x3e0c7e55	0.13720067
18	0x3bf834bb	0.0075746453
19	0x3e9798cc	0.29608762
20	0x3dd2d706	0.10294919
21	0xbe27b24b	-0.16376607
22	0x3d912918	0.07087916
23	0xbe47546d	-0.194658
24	0xbebe8a74	-0.37215006
25	0x3e9211df	0.2852926
26	0xbe30b9eb	-0.17258422
27	0x3d6ed719	0.0583106
28	0x3c0734f6	0.008252373
29	0xbe38d0f4	-0.1804846
30	0xbe83eb5a	-0.25765496
31	0xbea7560c	-0.32682836
32	0x3e19a539	0.15004434
33	0xbeb78ec7	-0.35851118
34	0x3d681004	0.0566559
35	0xbdc98c49	-0.098412104
36	0xbe83dbf6	-0.25753754
37	0x3dac0c5c	0.08400795
38	0x3e1c981a	0.15292397
39	0xbe5bbf37	-0.21459661
40	0x3eb72ac6	0.3577482
41	0xbe51aae7	-0.2047535
42	0xbe08ae71	-0.13347794
43	0xbd167268	-0.0367302
44	0xbeb4259b	-0.3518494
45	0xbe204cc4	-0.15654284
46	0x3e844e31	0.25840905
47	0xbe9690de	-0.294074
48	0x3da0e875	0.07856838
49	0xbe416cd7	-0.18889175
50	0x3e17ce89	0.1482488
51	0x3cd89138	0.026436433
52	0x3dd268bc	0.10273883
53	0xbea9d10f	-0.33167312
54	0xbe85ae50	-0.26109552
55	0x3e1c557a	0.15266982
56	0xbe89a8df	-0.2688665
57	0xbda02b1f	-0.07820725
58	0xbd418164	-0.047242537
59	0xbe8a9345	-0.27065483
60	0xbe8ec035	-0.27881017
61	0x3e48971a	0.1958889
62	0xbdd1ecb0	-0.10250223
63	0xbea8e3f6	-0.3298642
64	0xbeaa7c52	-0.33297974
65	0xbe80ab0a	-0.25130492
66	0xbe7b1128	-0.24518263
67	0x3e7d7cc6	0.24754629
68	0x3e1a373a	0.1506013
69	0xbe7f6208	-0.2493974
70	0xbdef0de8	-0.11672574
71	0xbdea073c	-0.11427161
72	0xbdf1d44b	-0.1180807
73	0x3e34d7c5	0.17660435
74	0xbeac7b13	-0.33687648
75	0xbe56c051	-0.209718
76	0x3d9b55ec	0.07584748
77	0xbdb520dc	-0.08844158
78	0x3ea81bcf	0.32833716
79	0x3c8d72b0	0.017266601
80	0x3c5c6aca	0.013453195
81	0xbe63a538	-0.22230995
82	0x3e3236a8	0.17403662
83	0x3e94df14	0.29076445
84	0x3e81091d	0.25202265
85	0xbea25e76	-0.31712693
86	0x3e4db4aa	0.20088449
87	0x3e126bb2	0.14298895
88	0xbe6eebf0	-0.2333219
89	0x3e92a1f2	0.2863918
90	0xb9bac1b0	-0.00035620993
91	0x3e906f53	0.28209934
92	0xbe7be145	-0.24597652
93	0xbe55febe	-0.20897958
94	0xbe89049a	-0.26761323
95	0xbbdf7cc0	-0.0068202913
96	0xbea6799c	-0.32514656
97	0x3d8df251	0.06930984
98	0xbd606b28	-0.054789692
99	0xbe2a008a	-0.16601768
100	0x3eb71b7c	0.35763156
101	0x3e41db48	0.18931305
102	0xbb577380	-0.003287524
103	0xbe84d3fe	-0.25942987
104	0xbea7d333	-0.3277832
105	0x3eaa6e04	0.3328706
106	0x3e3eb02d	0.18621893
107	0xbe1f21cb	-0.15540235
108	0xbda7aa7a	-0.08186813
109	0xbe7d7489	-0.24751486
110	0xbc749560	-0.014928192
111	0x3ea2218d	0.31666222
112	0x3eb5267e	0.3538093
113	0x3cac866b	0.02106019
114	0xbe032428	-0.12806761
115	0x3dd890ac	0.10574469
116	0x3eaa2a26	0.33235282
117	0xbe5e29fe	-0.21695706
118	0xbe8b16cb	-0.27165827
119	0x3e4dd4ba	0.2010068
120	0xbe96e677	-0.29472706
121	0xbe945458	-0.289706
122	0xbe1d5ca3	-0.1536737
123	0xbe8846b2	-0.26616436
124	0xbd07a2b1	-0.03311414
125	0xbd629139	-0.055314276
126	0xbe7cbafa	-0.24680701
127	0xbe666d69	-0.22502674
128	0xbeb5de55	-0.35521188
129	0xbcb7f256	-0.022454422
130	0xbe77a0e7	-0.24182473
131	0x3d548ed0	0.05189401
132	0xbe5c6758	-0.21523798
133	0x3de7ce6d	0.113186695
134	0xbcf226a0	-0.029559433
135	0x3e47e88a	0.195223
136	0x3e757015	0.23968537
137	0xbe1cd634	-0.15316087
138	0x3e19d11c	0.15021175
139	0xbe6895d7	-0.2271341
140	0x3df0f4c5	0.11765436
141	0x3eb37de3	0.3505698
142	0xbdde7940	-0.1086297
143	0xbe3bfa21	-0.18357135
144	0xbdedf09b	-0.116181575
145	0x3e8ff0a1	0.28113273
146	0xbe8eb480	-0.27872086
147	0x3dc542e2	0.096318975
148	0x3e32db6b	0.17466514
149	0x3decae14	0.1155664
150	0xbe3ca063	-0.18420558
151	0xbd1155f0	-0.035482347
152	0xbe97dbb9	-0.29659823
153	0xbe9eb8c1	-0.3100033
154	0x3e2d5475	0.16926749
155	0x3e782152	0.2423146
156	0x3ea6bdcf	0.32566687
157	0x3e9fecff	0.312355
158	0xbeace2b9	-0.33766726
159	0x3dd0e5ac	0.102000564
160	0x3e4cf8eb	0.2001683
161	0x3e02122a	0.12702242
162	0xbe65d5bd	-0.22444816
163	0x3e2c7654	0.16842014
164	0xbe608a12	-0.2192767
165	0x3e02c91f	0.12772034
166	0xbe075247	-0.1321498
167	0xbd2d0c98	-0.04224834
168	0x3e50292b	0.20328204
169	0x3eaa18bc	0.33221996
170	0x3db9cb40	0.0907197
171	0xbcea08ff	-0.028568743
172	0xbd17fbf7	-0.037105527
173	0x3d154c13	0.036449503
174	0x3e30aaea	0.17252699
175	0x3ea57421	0.32315162
176	0x3e811b2a	0.25216037
177	0x3e7052ae	0.2346904
178	0xbe7c2d0e	-0.24626562
179	0x3e7e3f45	0.24828823
180	0xbe0e2eaf	-0.13884996
181	0xbe75f8b7	-0.24020658
182	0xbd67b298	-0.056566805
183	0x3da51328	0.080602944
184	0xbe51108d	-0.2041647
185	0xbeb822a5	-0.35963932
186	0xbe136d5f	-0.1439719
187	0x3e5f42d1	0.21802832
188	0xbdfdb854	-0.123886734
189	0x3e8e2092	0.27759224
190	0x3d1c6138	0.038178653
191	0xbd161a90	-0.036646426
192	0x3e19a89b	0.15005724
193	0xbe3db96a	-0.18527761
194	0xbe8fd23c	-0.28090084
195	0x3b9ac840	0.0047235787
196	0xbea095e0	-0.31364346
197	0xbd45c86f	-0.04828685
198	0xbda843b0	-0.08216035
199	0xbeb069c5	-0.34455696
200	0xbddd8511	-0.10816396
201	0xbc8da136	-0.017288785
202	0xbe03ccea	-0.12871137
203	0xbe188cdc	-0.14897484
204	0x3e8a3441	0.26992992
205	0x3e9d5312	0.3072744
206	0x3e9e99c7	0.30976698
207	0x3eaab16f	0.33338496
208	0x3eab2ae5	0.33431163
209	0x3dce3487	0.100686125
210	0xbea2db45	-0.31807914
211	0x3de4bf47	0.11169296
212	0xbdf46718	-0.11933726
213	0x3e839ae2	0.25704104
214	0xbc902ce0	-0.017599523
215	0x3e41593a	0.18881693
216	0xbb0fbe90	-0.0021933652
217	0x3eaa5baf	0.33273074
218	0x3e1c281c	0.15249676
219	0x3ebce92a	0.3689664
220	0x3e5dfc1c	0.21678203
221	0x3ce58c87	0.02802111
222	0xbe843880	-0.25824356
223	0x3e4566b6	0.19277462
224	0xbe4471d7	-0.19184051
225	0xbe13f878	-0.14450252
226	0x3c9367bf	0.017993806
227	0xbdcb0b4e	-0.099142656
228	0x3e605a7b	0.21909516
229	0x3e3bab5b	0.18327086
230	0x3eab2773	0.33428535
231	0xbeaf0d32	-0.34189755
232	0xbe75a2f4	-0.23987943
233	0xbe0a95db	-0.13533728
234	0x3df692d0	0.12039721
235	0x3e842439	0.25808886
236	0xbe8db378	-0.27675986
237	0xbd2b043d	-0.04175209
238	0xbeac70f2	-0.3367992
239	0xbe9874f1	-0.2977672
240	0xbdcb66b9	-0.09931702
241	0x3eb432c3	0.35194978
242	0xbe6a93a1	-0.22907878
243	0xbdce0fcb	-0.10061606
244	0x3ddcabc9	0.10774953
245	0x3e906146	0.28199214
246	0xbd26eae0	-0.040751338
247	0xbe9fcaca	-0.31209403
248	0xbddf7fa7	-0.109130196
249	0x3e8d3634	0.27580416
250	0x3da0d3d4	0.07852903
251	0x3e7dd72e	0.24789116
252	0x3e06cad2	0.13163307
253	0xbe404820	-0.18777514
254	0xbe8ab6a9	-0.27092484
255	0x3c05a560	0.008157104

fc1.bias f4 [128]
0	0x3e913d94	0.28367293
1	0xbdf1f9f6	-0.118152544
2	0xbdc14d7a	-0.094386056
3	0x3dc58551	0.09644569
4	0x3d2a2b2e	0.041545086
5	0xbd78b9ba	-0.060723998
6	0x3cb8ad98	0.022543713
7	0x3e8b8f0c	0.27257574
8	0x3e72d3dd	0.23713632
9	0xbdd14b60	-0.10219455
10	0x3d9c2445	0.07624105
11	0xbe97b26e	-0.2962832
12	0x3e855856	0.26043957
13	0xbe5a1c1f	-0.2129979
14	0x3ea96572	0.3308521
15	0xbe517884	-0.2045613
16	0x3e3fb2da	0.1872057
17	0x3eafc9a8	0.3433354
18	0x3e46b257	0.19403969
19	0x3e9a978d	0.3019375
20	0x3d984230	0.07434499
21	0x3e90efbd	0.28307906
22	0x3e94584e	0.2897362
23	0xbe78e0a0	-0.24304438
24	0x3e985b14	0.29756987
25	0x3eaec580	0.34135056
26	0x3ea07982	0.31342703
27	0xbe7414a5	-0.23836
28	0xbe967a24	-0.2939006
29	0xbe005e95	-0.1253608
30	0x3e648655	0.22316869
31	0x3e6bb51f	0.23018311
32	0x3e7fbd7e	0.2497463
33	0xbe89db0e	-0.26924938
34	0x3eaacb6d	0.33358327
35	0xbea6b374	-0.32558787
36	0x3eb14a2f	0.3462691
37	0x3e9c433e	0.30520052
38	0x3d6a8b5a	0.057261802
39	0xbe7371dc	-0.23773903
40	0xbe8b40e0	-0.27197933
41	0x3e1a6430	0.15077281
42	0x3e30105a	0.17193738
43	0x3e4728cd	0.19449158
44	0xbe9fbf81	-0.31200793
45	0x3d95d962	0.07316853
46	0x3e3283ce	0.17433092
47	0x3ea940ce	0.33057255
48	0x3e982a1f	0.29719636
49	0x3ea0a605	0.31376663
50	0xbea31789	-0.31853893
51	0xbe1158e9	-0.14194073
52	0x3db0a089	0.0862437
53	0xbe1af19f	-0.15131234
54	0xbe365e7a	-0.17809477
55	0x3e9840c2	0.29736906
56	0xbdd3b276	-0.10336773
57	0x3e12aad2	0.14322975
58	0x3e4796dd	0.19491144
59	0x3eabe172	0.3357044
60	0x3ea5ce89	0.32384136
61	0xbe0d7f13	-0.13818006
62	0x3e219bd4	0.157821
63	0x3ebaea91	0.36507085
64	0x3e8736cd	0.26408997
65	0xbe3bd60b	-0.1834337
66	0x3cb5dbcb	0.022199532
67	0x3e2be9cf	0.1678841
68	0xbd46d6f5	-0.048544843
69	0x3d17fb12	0.037104674
70	0xbdf4c41d	-0.11951468
71	0x3e08d5ad	0.13362761
72	0x3e653dd6	0.2238687
73	0x3d9edb9d	0.07756732
74	0xbe34b156	-0.17645773
75	0xbeace243	-0.33766374
76	0xbc3cd8b9	-0.01152628
77	0x3eb814b9	0.3595331
78	0x3dc94370	0.09827316
79	0xbe9174bb	-0.2840937
80	0x3d126d23	0.035748612
81	0x3e9ef228	0.31044126
82	0xbe637bc8	-0.22215188
83	0x3e33bc90	0.175524
84	0x3e9443f4	0.28958094
85	0x3d85055a	0.06495161
86	0xbea04302	-0.31301123
87	0xbdbaf1fd	-0.09128187
88	0xbe21df97	-0.15807949
89	0x3d23d269	0.039995585
90	0x3e95f5ee	0.29289192
91	0x3e9ec14e	0.31006855
92	0xbd4cb6d3	-0.049979042
93	0x3ead914e	0.3389992
94	0xbe85e794	-0.26153243
95	0x3e505f01	0.20348741
96	0x3da0e348	0.078558505
97	0xbe349d44	-0.17638117
98	0xbdf40f6f	-0.11917006
99	0x3e77799f	0.24167489
100	0xbe9e4b09	-0.30916622
101	0xbe11ee1d	-0.1425099
102	0x3e93bc10	0.28854418
103	0xbe09df90	-0.13464189
104	0xbe7ed204	-0.24884802
105	0xbeacae98	-0.33726954
106	0x3da7310c	0.08163652
107	0x3e8c6414	0.27420104
108	0xbe8df58b	-0.27726397
109	0x3e25f375	0.16206153
110	0xbe1a3833	-0.15060501
111	0x3e6ecbb4	0.23319894
112	0xbe36bbef	-0.17845128
113	0xbe913027	-0.2835705
114	0xbe90278f	-0.2815518
115	0xbe53d4ae	-0.206866
116	0x3eb46b2d	0.3523802
117	0x3e2f2db4	0.17107278
118	0x3d80069d	0.062512614
119	0x3d88efda	0.06686373
120	0x3de158fb	0.110033
121	0x3d18092a	0.037118115
122	0xbde70625	-0.11280469
123	0xbeacc980	-0.33747482
124	0xbdd1f0c6	-0.10251002
125	0xbe8503fc	-0.25979602
126	0xbea0b051	-0.3138452
127	0x3ddd702c	0.10812411

fc2.weight f4 [64, 128]
0	0x3d0d2b5e	0.034465186
1	0xbd3147cd	-0.043281365
2	0x3d57081e	0.052497976
3	0xbd850d63	-0.06496694
4	0xbdab4511	-0.08362783
5	0x3c3c479e	0.011491684
6	0xbcef1bef	-0.029188124
7	0xbca07df7	-0.019591315
8	0xbd51a3c1	-0.05118156
9	0x3d840e13	0.06447997
10	0xbd0df1ef	-0.034654554
11	0xbd9ff14c	-0.078096956
12	0xbd6afd2f	-0.05737036
13	0x3d81c166	0.06335716
14	0x3d0f6fc3	0.035018694
15	0xbab23203	-0.0013595227
16	0xbdd4cf7d	-0.10391138
17	0x3d09b624	0.03362097
18	0x3d283019	0.041061494
19	0x3c6393a1	0.013890178
20	0x3c772430	0.015084311
21	0xba865e74	-0.0010251538
22	0xbc6a82ea	-0.014313439
23	0xbdad7487	-0.084694915
24	0xbd505a65	-0.050867457
25	0x3d6c4aae	0.057688408
26	0x3d034721	0.032050256
27	0x3d76197a	0.06008289
28	0xbd1c658b	-0.038182776
29	0xbb898df1	-0.004197829
30	0xbd8fd5c2	-0.07023193
31	0x3d2a6aec	0.041605875
32	0x3d55785c	0.052116737
33	0x3d4255e8	0.047445208
34	0x3d29ab57	0.041423168
35	0x3d33b899	0.043877218
36	0x3d07aa08	0.03312114
37	0xbd47e0a3	-0.048798215
38	0xbd84566b	-0.064617954
39	0xbc909105	-0.017647276
40	0xbbe53806	-0.006995204
41	0x3d073fc2	0.03301979
42	0xbd463afc	-0.048396096
43	0x3d3c4054	0.045959786
44	0x3d1a0988	0.037606746
45	0x3cdadc42	0.026716355
46	0x3c399ef7	0.011329404
47	0xbd9461dc	-0.07245228
48	0x3c8cd2ff	0.017190455
49	0x3cbce269	0.02305718
50	0xbda2b37c	-0.0794439
51	0xbd0d68e4	-0.03452386
52	0xbd16d3bc	-0.03682302
53	0x3cb4a8b2	0.022053096
54	0x3d5ce224	0.053926602
55	0xbb18f19a	-0.0023337365
56	0x3d90855f	0.070566885
57	0x3cc215be	0.023692008
58	0xbda14334	-0.07874146
59	0x3d2db3ac	0.042407677
60	0x3d5ee815	0.05442055
61	0xbaf02550	-0.0018321667
62	0x3b593472	0.0033142832
63	0x3cffabfc	0.031209938
64	0x3d8d002f	0.06884801
65	0x3d7a27ab	0.061072987
66	0x3d64df19	0.055876825
67	0x3c84320c	0.016137145
68	0x3d7f9fdf	0.062408324
69	0x3cfcf524	0.03087861
70	0x3d46cb02	0.048533447
71	0xbc5fc6d0	-0.01365824
72	0xbd1ebd0f	-0.03875452
73	0xbdcfa4ab	-0.1013883
74	0xbd6adf4a	-0.05734185
75	0xbda031ed	-0.078220226
76	0x3b186e21	0.0023259001
77	0xbcb99091	-0.022651942
78	0x3d65fd86	0.056149982
79	0xbb25b5a1	-0.0025285261
80	0x3c7c731c	0.015408304
81	0x3d37468e	0.04474502
82	0xbd619b53	-0.05507977
83	0x3c253805	0.010084157
84	0x3d3f8ffd	0.046768177
85	0xbcabdf68	-0.020980552
86	0x3d350648	0.044195443
87	0xbcd3fabb	-0.025876394
88	0xbdcfa96d	-0.10139737
89	0xbd9b2b42	-0.0757661
90	0xbdae10b3	-0.08499279
91	0xbd849fb4	-0.064757735
92	0x3d22970c	0.03969483
93	0xbdcc3f9f	-0.09973072
94	0xbd57f63e	-0.05272507
95	0xbd5c9046	-0.053848527
96	0xbc5b001b	-0.013366724
97	0x3c835e2c	0.016036116
98	0x3cab35ec	0.020899735
99	0xbd9e88db	-0.07740947
100	0xbdc7c204	-0.097538024
101	0x3d42b7f3	0.04753871
102	0x3c84859d	0.016176993
103	0xbce2d8ab	-0.027691206
104	0xbdb14f22	-0.086576715
105	0x3da3c7b8	0.07997078
106	0xbd16c5cb	-0.036809724
107	0x3d7888ca	0.060677327
108	0xbd3a7856	-0.045524918
109	0xbd74b638	-0.05974409
110	0xbdada6ff	-0.084791176
111	0x3d822fe3	0.0635679
112	0x3d7d6eb1	0.06187314
113	0x3d2eb6dd	0.04265486
114	0xbb881d2e	-0.004153869
115	0xbd9cc5fe	-0.076549515
116	0x3d167a7e	0.03673791
117	0xbd9c68d2	-0.076371804
118	0xbdb4946c	-0.08817372
119	0xbd7ee6f4	-0.062231973
120	0xbdba716f	-0.09103667
121	0xbd44a098	-0.048004717
122	0xbd3ca892	-0.0460592
123	0xbdba4151	-0.09094489
124	0x3c9a3a89	0.01882674
125	0xbd257db8	-0.040403098
126	0xbdab895b	-0.08375808
127	0xbd0713bb	-0.0329778
128	0x39947588	0.00028316327
129	0x3dae5426	0.08512144
130	0x3da6da00	0.08147049
131	0xbd1d235f	-0.03836381
132	0x3a31cf9e	0.00067829515
133	0x3c313bcc	0.010817479
134	0x3d323009	0.04350284
135	0xbaabd7a3	-0.0013110529
136	0x3d3831d2	0.044969387
137	0xbd57c2c5	-0.05267598
138	0x3c89b83b	0.01681148
139	0xbd8037b2	-0.06260623
140	0xbd6721d7	-0.056428757
141	0x3d57fcbb	0.052731257
142	0x3d6c138c	0.05763583
143	0xbca0df13	-0.01963762
144	0xbd8a4067	-0.06750565
145	0x3dbc98f6	0.092088625
146	0x3da24ad9	0.07924432
147	0xba23001a	-0.00062179717
148	0x3d74cecd	0.059767533
149	0x3d671789	0.05641893
150	0x3c051c24	0.008124385
151	0x3d4a7ee7	0.04943743
152	0xbccc42f7	-0.024934275
153	0xbc167400	-0.00918293
154	0x3cdb7139	0.026787387
155	0x3d94e3e4	0.07270029
156	0xbd86c2d7	-0.065801315
157	0x3dbb38ba	0.09141679
158	0xbd68f604	-0.056875244
159	0x3d8325b5	0.064036764
160	0xbd838164	-0.06421164
161	0x3bea17da	0.0071439566
162	0xbd3b25ed	-0.045690466
163	0xbd8dc41e	-0.06922172
164	0x3c98748c	0.018610261
165	0xbc26abaa	-0.010172764
166	0x3da84143	0.08215573
167	0xbd0e7eae	-0.03478878
168	0xbc85185e	-0.01624697
169	0x3d7332ea	0.059374727
170	0xbd428f00	-0.047499657
171	0x3d7b6822	0.061378606
172	0xbc829b5b	-0.01594322
173	0xbcd543ce	-0.026033308
174	0x3d39471d	0.045233835
175	0x3d4975c0	0.04918456
176	0xbc3d7a2f	-0.011564775
177	0x3b5a39be	0.0033298577
178	0x3ca0a13f	0.019608138
179	0x3d73a0d8	0.059479564
180	0xbd3bf56a	-0.045888342
181	0x3d4b1172	0.049577184
182	0x3d1c3667	0.03813782
183	0x3c4c75df	0.0124792745
184	0xbd305ad6	-0.043055378
185	0xbc9933dd	-0.018701488
186	0x3c1c6a4b	0.009546827
187	0x3d66674a	0.056250848
188	0x3dcb9c02	0.099418655
189	0x3da72c9f	0.08162808
190	0xbd57e2b0	-0.05270642
191	0x3dd12acc	0.10213241
192	0x3db827e0	0.089919806
193	0x3d43fb7d	0.04784726
194	0x3d0c6e85	0.034285087
195	0x3cd5e113	0.0261083
196	0xbc8eff68	-0.017455772
197	0xbd79b49d	-0.060963262
198	0x3b43397c	0.0029788902
199	0x3dc20b64	0.09474829
200	0x3d6a4f0f	0.057204302
201	0x3ca4a7ac	0.020099483
202	0xbd4225aa	-0.0473992
203	0x3cdfa07e	0.027298208
204	0x3db012ef	0.08597361
205	0x3d084012	0.033264227
206	0x3d8901d7	0.06689804
207	0x3d9b0f30	0.07571256
208	0xbcf33f9b	-0.029693415
209	0xbbbccbe5	-0.005761611
210	0x3d87c231	0.06628836
211	0x3d934277	0.071904115
212	0x3af3010e	0.0018539743
213	0xbd10566e	-0.035238676
214	0x3d7ebf1e	0.062193982
215	0xbd3ba12e	-0.04580801
216	0x3d919faa	0.07110532
217	0xbd3063f0	-0.043064058
218	0x3d93f015	0.072235264
219	0xbd1b0e05	-0.037855167
220	0x3d209c39	0.039211486
221	0x3c0b101e	0.008487729
222	0xbd6db814	-0.05803688
223	0x3dcca9ac	0.099933
224	0x3c605734	0.013692666
225	0x3dbf0ace	0.09328233
226	0xbd8d26db	-0.06892177
227	0x3daab8df	0.083360426
228	0x3ae290d9	0.00172856
229	0x3d86bb39	0.06578679
230	0x3a129b22	0.00055925746
231	0x3cf19e4b	0.029494425
232	0xbd5b3e60	-0.053526282
233	0xbcb64168	-0.022247985
234	0x3d206cb7	0.03916618
235	0x3cc66525	0.024218151
236	0x3d66c87a	0.056343533
237	0x3c24f604	0.01006842
238	0xbb44009e	-0.0029907594
239	0xbcc1485e	-0.023594078
240	0x3cd7b535	0.026331523
241	0xbc8964be	-0.01677167
242	0x3dcbd8b6	0.09953444
243	0x3da13632	0.07871665
244	0x3d9e3ccd	0.077264406
245	0xbce8fdcb	-0.02844133
246	0xbd65997d	-0.05605458
247	0xb89c1ab0	-7.4436306e-05
248	0xbb8aafd6	-0.004232387
249	0xbd12bdfb	-0.03582571
250	0xbd78cb2a	-0.060740627
251	0x3cd96cce	0.02654114
252	0x3cd20636	0.025637727
253	0xb90d4ae0	-0.00013474701
254	0x3cd1c51f	0.02560669
255	0xbc65a51e	-0.014016418

fc2.bias f4 [64]
0	0xb9f1b168	-0.0004609928
1	0xbd432177	-0.047639336
2	0xbcad6877	-0.021167977
3	0xbd03dc93	-0.032192778
4	0xbd466a5d	-0.04844128
5	0xbd5eb523	-0.054371964
6	0xbdae0102	-0.08496286
7	0xbd818549	-0.0632425
8	0xbcaa0a88	-0.020756975
9	0x3d566ee2	0.05235184
10	0xbd121893	-0.035667967
11	0xbc3522c1	-0.011055649
12	0x3d8a0b50	0.06740439
13	0x3c367041	0.011135162
14	0x3dcc1c49	0.099663325
15	0x3d4d9995	0.050195295
16	0xbd82f014	-0.063934475
17	0x3ca83c0b	0.020536443
18	0xbcc2b395	-0.023767272
19	0x3daa57df	0.08317541
20	0x3d1f7373	0.03892846
21	0xbd869499	-0.065713115
22	0x3bbe2daa	0.0058037834
23	0xbd22193b	-0.039574843
24	0xbcce2294	-0.025162973
25	0x3d417042	0.047226198
26	0x3d045a4e	0.032312684
27	0xbc824835	-0.015903572
28	0xbd5a6367	-0.053317454
29	0xbc660af2	-0.0140406955
30	0xbd27461c	-0.040838346
31	0xbd26e138	-0.04074213
32	0x3d79d63a	0.060995318
33	0xbd9b0279	-0.07568831
34	0x3d6dd7be	0.058067076
35	0xbd350043	-0.044189703
36	0x3ddc249a	0.10749169
37	0xbcf7e98d	-0.030262733
38	0x3d3c4d91	0.04597241
39	0xbd656384	-0.05600311
40	0xbd5488ff	-0.051888462
41	0x3c83c174	0.016083457
42	0x3d77c89a	0.060494043
43	0xbd247a2d	-0.04015558
44	0x3d022eb8	0.031782836
45	0xbcb5fceb	-0.022215327
46	0x3d238801	0.039924625
47	0xbd5ee8f9	-0.0544214
48	0x3d85ab3d	0.06526802
49	0x3d16299d	0.03666078
50	0x3d4c7966	0.049920462
51	0x3d3b5901	0.045739178
52	0xbc617f84	-0.013763312
53	0xbdb3f8dc	-0.087877005
54	0xbd82dfe3	-0.06390359
55	0xbd553481	-0.052052025
56	0xbb313f1d	-0.0027045675
57	0xbd5e4136	-0.05426141
58	0x3d687b6d	0.056758333
59	0xbc101fec	-0.008796673
60	0xbd3f993f	-0.046777006
61	0x3dde24d5	0.10846869
62	0x3c23efed	0.010005933
63	0x3dc28b8f	0.09499275

fc3.weight f4 [2, 64]
0	0x3c81ed21	0.015860142
1	0x3e02fcec	0.12791795
2	0xbc10c726	-0.008836543
3	0x3d90ad25	0.07064275
4	0x3e0cf736	0.13766178
5	0xbd199105	-0.037491817
6	0xbcd2f007	-0.02574922
7	0x3d9885e5	0.07447413
8	0xbd894b56	-0.06703822
9	0x3d79ab50	0.060954392
10	0x3e00a6fa	0.12563697
11	0xbcecc8d5	-0.028904358
12	0x3d3434ff	0.043995854
13	0x3df6f21b	0.12057897
14	0x3df6b5cb	0.12046393
15	0x3de42ffd	0.111419655
16	0x3df7354c	0.120707124
17	0xbd3b0d2a	-0.04566685
18	0x3d34a5dd	0.044103492
19	0x3bfd2025	0.007724779
20	0xbd4b4806	-0.049629234
21	0x3e0916cc	0.13387603
22	0xbdd93721	-0.10606218
23	0x3ad6fd8a	0.0016402465
24	0x3c897ad9	0.016782211
25	0xbd14a787	-0.03629258
26	0xbdca0ef3	-0.098661326
27	0xbc59c841	-0.013292373
28	0xbc082430	-0.008309409
29	0x3b8eb409	0.004354958
30	0xbd209685	-0.039206047
31	0xbd4fa80b	-0.050697368
32	0xbd5bcc3b	-0.053661566
33	0xbc4e43db	-0.01258942
34	0xbdc41f27	-0.09576254
35	0xbdb5d091	-0.088776715
36	0x3d582e81	0.052778725
37	0x3d77fed8	0.060545772
38	0x3d85bf60	0.065306425
39	0xbda3b360	-0.079931974
40	0x3d900991	0.07033075
41	0x3dbd6767	0.09248238
42	0x3df3e021	0.119079836
43	0x3d930a48	0.07179695
44	0xbd7e7df0	-0.062131822
45	0x3e13f807	0.14450084
46	0xbd85e864	-0.065384656
47	0xbdbd71b8	-0.09250206
48	0xbdb48cab	-0.08815893
49	0x3d73286c	0.05936472
50	0xbbd9cec2	-0.006646962
51	0x3d2d3b09	0.04229263
52	0xbd9db2d2	-0.07700123
53	0xbc3d8ce9	-0.01156924
54	0x3e06924e	0.13141748
55	0x3d1de4a9	0.038548145
56	0xbd84f67e	-0.06492327
57	0x3d3bb75d	0.045829166
58	0xbdb0ec16	-0.0863878
59	0xbd15599d	-0.036462415
60	0xbd209138	-0.03920099
61	0x3de68df4	0.11257544
62	0xbd8d0693	-0.068860196
63	0x3df77ec3	0.12084725
64	0x3cce9e89	0.02522208
65	0xbddaea16	-0.106891796
66	0xbdef3e15	-0.11681763
67	0x3de57134	0.112032324
68	0xbcb19811	-0.021678956
69	0xbd1746bb	-0.03693269
70	0x3c9cdff5	0.01914976
71	0xbc664c3c	-0.014056262
72	0xbd0dbbf8	-0.03460309
73	0x3d6d764c	0.057974145
74	0xbd73b6dc	-0.05950056
75	0x3dc6fe68	0.09716493
76	0x3d871e72	0.06597604
77	0x3c32e04c	0.010917734
78	0x3d77a2fa	0.06045816
79	0xbd972bea	-0.07381423
80	0x3d48447c	0.048893437
81	0x3dbf2162	0.09332539
82	0xbd553295	-0.052050192
83	0xbdbca693	-0.09211459
84	0x3c816d6d	0.015799249
85	0xbd8bacd7	-0.06820076
86	0xbd5e9611	-0.054342333
87	0xbd8667f3	-0.065627955
88	0x3dd200e7	0.10254078
89	0xbdbd3ee8	-0.09240514
90	0xbc74979e	-0.0149287265
91	0xbd7d675f	-0.06186616
92	0x3bf1c521	0.007378236
93	0x3d8acf1e	0.06777786
94	0xbdc24a64	-0.09486845
95	0xbd3553f1	-0.044269506
96	0xbd085206	-0.03328135
97	0x3ca761a6	0.020432305
98	0xbd98b599	-0.07456512
99	0x3d45d919	0.048302744
100	0xbcc3fbb3	-0.02392373
101	0xbd34f965	-0.044183154
102	0x3d874007	0.06604009
103	0x3d80aa38	0.06282467
104	0xbd76dfb5	-0.060271937
105	0xbcdca330	-0.026933283
106	0x3d02e02a	0.03195206
107	0xbd85dd14	-0.06536308
108	0xbdeb98f6	-0.11503784
109	0xbe061e00	-0.13097382
110	0xba2d9a1a	-0.0006622389
111	0x3da1c6e0	0.078992605
112	0x3dbed33d	0.09317634
113	0xbb4a9969	-0.0030914193
114	0xbd590fb5	-0.052993495
115	0x3d5920da	0.053009845
116	0xbc3baf6b	-0.011455397
117	0x3d2867ce	0.04111462
118	0xbd5d731e	-0.054064862
119	0xbd94b521	-0.0726111
120	0x3d772014	0.060333326
121	0xbdced825	-0.1009982
122	0x3ded6ac8	0.115926325
123	0xbe01dc2e	-0.12681648
124	0xbad52972	-0.0016262962
125	0x3d321009	0.043472324
126	0xbd538d51	-0.05164844
127	0x3d8d476f	0.068983905

fc3.bias f4 [2]
0	0x3d096d0a	0.033551253
1	0xbe0c88d8	-0.13724077
